{"format": "graph-model", "generatedBy": "2.5.0", "convertedBy": "TensorFlow.js Converter v3.7.0", "signature": {"inputs": {"input_1": {"name": "input_1:0", "dtype": "DT_FLOAT", "tensorShape": {"dim": [{"size": "-1"}, {"size": "5120"}, {"size": "1"}]}}}, "outputs": {"activation": {"name": "Identity:0", "dtype": "DT_FLOAT", "tensorShape": {"dim": [{"size": "-1"}, {"size": "3"}]}}}}, "modelTopology": {"node": [{"name": "StatefulPartitionedCall/model/simple_rnn/while/loop_counter", "op": "Const", "attr": {"dtype": {"type": "DT_INT32"}, "value": {"tensor": {"dtype": "DT_INT32", "tensorShape": {}}}}}, {"name": "StatefulPartitionedCall/model/simple_rnn/while/maximum_iterations", "op": "Const", "attr": {"dtype": {"type": "DT_INT32"}, "value": {"tensor": {"dtype": "DT_INT32", "tensorShape": {}}}}}, {"name": "StatefulPartitionedCall/model/simple_rnn/time", "op": "Const", "attr": {"dtype": {"type": "DT_INT32"}, "value": {"tensor": {"dtype": "DT_INT32", "tensorShape": {}}}}}, {"name": "StatefulPartitionedCall/model/simple_rnn/TensorArrayV2_1/element_shape", "op": "Const", "attr": {"value": {"tensor": {"dtype": "DT_INT32", "tensorShape": {"dim": [{"size": "2"}]}}}, "dtype": {"type": "DT_INT32"}}}, {"name": "StatefulPartitionedCall/model/simple_rnn/strided_slice/stack", "op": "Const", "attr": {"value": {"tensor": {"dtype": "DT_INT32", "tensorShape": {"dim": [{"size": "1"}]}}}, "dtype": {"type": "DT_INT32"}}}, {"name": "StatefulPartitionedCall/model/simple_rnn/strided_slice/stack_1", "op": "Const", "attr": {"value": {"tensor": {"dtype": "DT_INT32", "tensorShape": {"dim": [{"size": "1"}]}}}, "dtype": {"type": "DT_INT32"}}}, {"name": "StatefulPartitionedCall/model/simple_rnn/strided_slice/stack_2", "op": "Const", "attr": {"dtype": {"type": "DT_INT32"}, "value": {"tensor": {"dtype": "DT_INT32", "tensorShape": {"dim": [{"size": "1"}]}}}}}, {"name": "StatefulPartitionedCall/model/simple_rnn/zeros/packed/1", "op": "Const", "attr": {"dtype": {"type": "DT_INT32"}, "value": {"tensor": {"dtype": "DT_INT32", "tensorShape": {}}}}}, {"name": "StatefulPartitionedCall/model/simple_rnn/zeros/Const", "op": "Const", "attr": {"dtype": {"type": "DT_FLOAT"}, "value": {"tensor": {"dtype": "DT_FLOAT", "tensorShape": {}}}}}, {"name": "StatefulPartitionedCall/model/simple_rnn/strided_slice_1/stack", "op": "Const", "attr": {"value": {"tensor": {"dtype": "DT_INT32", "tensorShape": {"dim": [{"size": "1"}]}}}, "dtype": {"type": "DT_INT32"}}}, {"name": "StatefulPartitionedCall/model/simple_rnn/strided_slice_1/stack_1", "op": "Const", "attr": {"value": {"tensor": {"dtype": "DT_INT32", "tensorShape": {"dim": [{"size": "1"}]}}}, "dtype": {"type": "DT_INT32"}}}, {"name": "StatefulPartitionedCall/model/simple_rnn/strided_slice_1/stack_2", "op": "Const", "attr": {"value": {"tensor": {"dtype": "DT_INT32", "tensorShape": {"dim": [{"size": "1"}]}}}, "dtype": {"type": "DT_INT32"}}}, {"name": "StatefulPartitionedCall/model/conv1d/conv1d/ExpandDims/dim", "op": "Const", "attr": {"dtype": {"type": "DT_INT32"}, "value": {"tensor": {"dtype": "DT_INT32", "tensorShape": {}}}}}, {"name": "StatefulPartitionedCall/model/conv1d/conv1d/ExpandDims_1", "op": "Const", "attr": {"value": {"tensor": {"dtype": "DT_FLOAT", "tensorShape": {"dim": [{"size": "1"}, {"size": "64"}, {"size": "1"}, {"size": "64"}]}}}, "dtype": {"type": "DT_FLOAT"}}}, {"name": "StatefulPartitionedCall/model/conv1d/BiasAdd/ReadVariableOp", "op": "Const", "attr": {"value": {"tensor": {"dtype": "DT_FLOAT", "tensorShape": {"dim": [{"size": "64"}]}}}, "dtype": {"type": "DT_FLOAT"}}}, {"name": "StatefulPartitionedCall/model/batch_normalization/batchnorm/mul", "op": "Const", "attr": {"dtype": {"type": "DT_FLOAT"}, "value": {"tensor": {"dtype": "DT_FLOAT", "tensorShape": {"dim": [{"size": "64"}]}}}}}, {"name": "StatefulPartitionedCall/model/batch_normalization/batchnorm/sub", "op": "Const", "attr": {"dtype": {"type": "DT_FLOAT"}, "value": {"tensor": {"dtype": "DT_FLOAT", "tensorShape": {"dim": [{"size": "64"}]}}}}}, {"name": "StatefulPartitionedCall/model/max_pooling1d/ExpandDims/dim", "op": "Const", "attr": {"value": {"tensor": {"dtype": "DT_INT32", "tensorShape": {}}}, "dtype": {"type": "DT_INT32"}}}, {"name": "StatefulPartitionedCall/model/conv1d_1/conv1d/ExpandDims/dim", "op": "Const", "attr": {"dtype": {"type": "DT_INT32"}, "value": {"tensor": {"dtype": "DT_INT32", "tensorShape": {}}}}}, {"name": "StatefulPartitionedCall/model/conv1d_1/conv1d/ExpandDims_1", "op": "Const", "attr": {"value": {"tensor": {"dtype": "DT_FLOAT", "tensorShape": {"dim": [{"size": "1"}, {"size": "8"}, {"size": "64"}, {"size": "64"}]}}}, "dtype": {"type": "DT_FLOAT"}}}, {"name": "StatefulPartitionedCall/model/conv1d_1/BiasAdd/ReadVariableOp", "op": "Const", "attr": {"dtype": {"type": "DT_FLOAT"}, "value": {"tensor": {"dtype": "DT_FLOAT", "tensorShape": {"dim": [{"size": "64"}]}}}}}, {"name": "StatefulPartitionedCall/model/batch_normalization_1/batchnorm/mul", "op": "Const", "attr": {"value": {"tensor": {"dtype": "DT_FLOAT", "tensorShape": {"dim": [{"size": "64"}]}}}, "dtype": {"type": "DT_FLOAT"}}}, {"name": "StatefulPartitionedCall/model/batch_normalization_1/batchnorm/sub", "op": "Const", "attr": {"value": {"tensor": {"dtype": "DT_FLOAT", "tensorShape": {"dim": [{"size": "64"}]}}}, "dtype": {"type": "DT_FLOAT"}}}, {"name": "StatefulPartitionedCall/model/conv1d_2/conv1d/ExpandDims/dim", "op": "Const", "attr": {"value": {"tensor": {"dtype": "DT_INT32", "tensorShape": {}}}, "dtype": {"type": "DT_INT32"}}}, {"name": "StatefulPartitionedCall/model/conv1d_2/conv1d/ExpandDims_1", "op": "Const", "attr": {"value": {"tensor": {"dtype": "DT_FLOAT", "tensorShape": {"dim": [{"size": "1"}, {"size": "8"}, {"size": "64"}, {"size": "64"}]}}}, "dtype": {"type": "DT_FLOAT"}}}, {"name": "StatefulPartitionedCall/model/conv1d_2/BiasAdd/ReadVariableOp", "op": "Const", "attr": {"value": {"tensor": {"dtype": "DT_FLOAT", "tensorShape": {"dim": [{"size": "64"}]}}}, "dtype": {"type": "DT_FLOAT"}}}, {"name": "StatefulPartitionedCall/model/batch_normalization_2/batchnorm/mul", "op": "Const", "attr": {"dtype": {"type": "DT_FLOAT"}, "value": {"tensor": {"dtype": "DT_FLOAT", "tensorShape": {"dim": [{"size": "64"}]}}}}}, {"name": "StatefulPartitionedCall/model/batch_normalization_2/batchnorm/sub", "op": "Const", "attr": {"value": {"tensor": {"dtype": "DT_FLOAT", "tensorShape": {"dim": [{"size": "64"}]}}}, "dtype": {"type": "DT_FLOAT"}}}, {"name": "StatefulPartitionedCall/model/global_average_pooling1d/Mean/reduction_indices", "op": "Const", "attr": {"value": {"tensor": {"dtype": "DT_INT32", "tensorShape": {}}}, "dtype": {"type": "DT_INT32"}}}, {"name": "StatefulPartitionedCall/model/reshape/strided_slice/stack", "op": "Const", "attr": {"value": {"tensor": {"dtype": "DT_INT32", "tensorShape": {"dim": [{"size": "1"}]}}}, "dtype": {"type": "DT_INT32"}}}, {"name": "StatefulPartitionedCall/model/reshape/strided_slice/stack_1", "op": "Const", "attr": {"value": {"tensor": {"dtype": "DT_INT32", "tensorShape": {"dim": [{"size": "1"}]}}}, "dtype": {"type": "DT_INT32"}}}, {"name": "StatefulPartitionedCall/model/reshape/strided_slice/stack_2", "op": "Const", "attr": {"value": {"tensor": {"dtype": "DT_INT32", "tensorShape": {"dim": [{"size": "1"}]}}}, "dtype": {"type": "DT_INT32"}}}, {"name": "StatefulPartitionedCall/model/reshape/Reshape/shape/1", "op": "Const", "attr": {"dtype": {"type": "DT_INT32"}, "value": {"tensor": {"dtype": "DT_INT32", "tensorShape": {}}}}}, {"name": "StatefulPartitionedCall/model/reshape/Reshape/shape/2", "op": "Const", "attr": {"value": {"tensor": {"dtype": "DT_INT32", "tensorShape": {}}}, "dtype": {"type": "DT_INT32"}}}, {"name": "StatefulPartitionedCall/model/simple_rnn/transpose/perm", "op": "Const", "attr": {"dtype": {"type": "DT_INT32"}, "value": {"tensor": {"dtype": "DT_INT32", "tensorShape": {"dim": [{"size": "3"}]}}}}}, {"name": "StatefulPartitionedCall/model/simple_rnn/TensorArrayUnstack/TensorListFromTensor/element_shape", "op": "Const", "attr": {"dtype": {"type": "DT_INT32"}, "value": {"tensor": {"dtype": "DT_INT32", "tensorShape": {"dim": [{"size": "2"}]}}}}}, {"name": "unknown_17", "op": "Const", "attr": {"value": {"tensor": {"dtype": "DT_FLOAT", "tensorShape": {"dim": [{"size": "1"}, {"size": "64"}]}}}, "dtype": {"type": "DT_FLOAT"}}}, {"name": "unknown_18", "op": "Const", "attr": {"dtype": {"type": "DT_FLOAT"}, "value": {"tensor": {"dtype": "DT_FLOAT", "tensorShape": {"dim": [{"size": "64"}]}}}}}, {"name": "unknown_19", "op": "Const", "attr": {"value": {"tensor": {"dtype": "DT_FLOAT", "tensorShape": {"dim": [{"size": "64"}, {"size": "64"}]}}}, "dtype": {"type": "DT_FLOAT"}}}, {"name": "StatefulPartitionedCall/model/simple_rnn/TensorArrayV2Stack/TensorListStack/element_shape", "op": "Const", "attr": {"value": {"tensor": {"dtype": "DT_INT32", "tensorShape": {"dim": [{"size": "2"}]}}}, "dtype": {"type": "DT_INT32"}}}, {"name": "StatefulPartitionedCall/model/simple_rnn/strided_slice_3/stack", "op": "Const", "attr": {"dtype": {"type": "DT_INT32"}, "value": {"tensor": {"dtype": "DT_INT32", "tensorShape": {"dim": [{"size": "1"}]}}}}}, {"name": "StatefulPartitionedCall/model/simple_rnn/strided_slice_3/stack_1", "op": "Const", "attr": {"value": {"tensor": {"dtype": "DT_INT32", "tensorShape": {"dim": [{"size": "1"}]}}}, "dtype": {"type": "DT_INT32"}}}, {"name": "StatefulPartitionedCall/model/simple_rnn/strided_slice_3/stack_2", "op": "Const", "attr": {"dtype": {"type": "DT_INT32"}, "value": {"tensor": {"dtype": "DT_INT32", "tensorShape": {"dim": [{"size": "1"}]}}}}}, {"name": "StatefulPartitionedCall/model/dense/MatMul/ReadVariableOp", "op": "Const", "attr": {"dtype": {"type": "DT_FLOAT"}, "value": {"tensor": {"dtype": "DT_FLOAT", "tensorShape": {"dim": [{"size": "64"}, {"size": "3"}]}}}}}, {"name": "StatefulPartitionedCall/model/dense/BiasAdd/ReadVariableOp", "op": "Const", "attr": {"dtype": {"type": "DT_FLOAT"}, "value": {"tensor": {"dtype": "DT_FLOAT", "tensorShape": {"dim": [{"size": "3"}]}}}}}, {"name": "input_1", "op": "Placeholder", "attr": {"dtype": {"type": "DT_FLOAT"}, "shape": {"shape": {"dim": [{"size": "-1"}, {"size": "5120"}, {"size": "1"}]}}}}, {"name": "StatefulPartitionedCall/model/conv1d/conv1d/ExpandDims", "op": "ExpandDims", "input": ["input_1", "StatefulPartitionedCall/model/conv1d/conv1d/ExpandDims/dim"], "attr": {"Tdim": {"type": "DT_INT32"}, "T": {"type": "DT_FLOAT"}}}, {"name": "StatefulPartitionedCall/model/conv1d/conv1d", "op": "_FusedConv2D", "input": ["StatefulPartitionedCall/model/conv1d/conv1d/ExpandDims", "StatefulPartitionedCall/model/conv1d/conv1d/ExpandDims_1", "StatefulPartitionedCall/model/conv1d/BiasAdd/ReadVariableOp"], "device": "/device:CPU:0", "attr": {"explicit_paddings": {"list": {}}, "fused_ops": {"list": {"s": ["Qmlhc0FkZA=="]}}, "epsilon": {"f": 0.0}, "data_format": {"s": "TkhXQw=="}, "strides": {"list": {"i": ["1", "1", "8", "1"]}}, "padding": {"s": "U0FNRQ=="}, "num_args": {"i": "1"}, "use_cudnn_on_gpu": {"b": true}, "dilations": {"list": {"i": ["1", "1", "1", "1"]}}, "T": {"type": "DT_FLOAT"}}}, {"name": "StatefulPartitionedCall/model/conv1d/BiasAdd", "op": "Squeeze", "input": ["StatefulPartitionedCall/model/conv1d/conv1d"], "attr": {"squeeze_dims": {"list": {"i": ["-3"]}}, "T": {"type": "DT_FLOAT"}}}, {"name": "StatefulPartitionedCall/model/batch_normalization/batchnorm/mul_1", "op": "Mul", "input": ["StatefulPartitionedCall/model/conv1d/BiasAdd", "StatefulPartitionedCall/model/batch_normalization/batchnorm/mul"], "attr": {"T": {"type": "DT_FLOAT"}}}, {"name": "StatefulPartitionedCall/model/batch_normalization/batchnorm/add_1", "op": "AddV2", "input": ["StatefulPartitionedCall/model/batch_normalization/batchnorm/mul_1", "StatefulPartitionedCall/model/batch_normalization/batchnorm/sub"], "attr": {"T": {"type": "DT_FLOAT"}}}, {"name": "StatefulPartitionedCall/model/re_lu/Relu", "op": "Relu", "input": ["StatefulPartitionedCall/model/batch_normalization/batchnorm/add_1"], "attr": {"T": {"type": "DT_FLOAT"}}}, {"name": "StatefulPartitionedCall/model/max_pooling1d/ExpandDims", "op": "ExpandDims", "input": ["StatefulPartitionedCall/model/re_lu/Relu", "StatefulPartitionedCall/model/max_pooling1d/ExpandDims/dim"], "attr": {"Tdim": {"type": "DT_INT32"}, "T": {"type": "DT_FLOAT"}}}, {"name": "StatefulPartitionedCall/model/max_pooling1d/MaxPool", "op": "MaxPool", "input": ["StatefulPartitionedCall/model/max_pooling1d/ExpandDims"], "attr": {"explicit_paddings": {"list": {}}, "strides": {"list": {"i": ["1", "8", "1", "1"]}}, "ksize": {"list": {"i": ["1", "8", "1", "1"]}}, "padding": {"s": "U0FNRQ=="}, "data_format": {"s": "TkhXQw=="}, "T": {"type": "DT_FLOAT"}}}, {"name": "StatefulPartitionedCall/model/max_pooling1d/Squeeze", "op": "Squeeze", "input": ["StatefulPartitionedCall/model/max_pooling1d/MaxPool"], "attr": {"squeeze_dims": {"list": {"i": ["2"]}}, "T": {"type": "DT_FLOAT"}}}, {"name": "StatefulPartitionedCall/model/conv1d_1/conv1d/ExpandDims", "op": "ExpandDims", "input": ["StatefulPartitionedCall/model/max_pooling1d/Squeeze", "StatefulPartitionedCall/model/conv1d_1/conv1d/ExpandDims/dim"], "attr": {"T": {"type": "DT_FLOAT"}, "Tdim": {"type": "DT_INT32"}}}, {"name": "StatefulPartitionedCall/model/conv1d_1/conv1d", "op": "_FusedConv2D", "input": ["StatefulPartitionedCall/model/conv1d_1/conv1d/ExpandDims", "StatefulPartitionedCall/model/conv1d_1/conv1d/ExpandDims_1", "StatefulPartitionedCall/model/conv1d_1/BiasAdd/ReadVariableOp"], "device": "/device:CPU:0", "attr": {"data_format": {"s": "TkhXQw=="}, "strides": {"list": {"i": ["1", "1", "1", "1"]}}, "use_cudnn_on_gpu": {"b": true}, "explicit_paddings": {"list": {}}, "dilations": {"list": {"i": ["1", "1", "1", "1"]}}, "num_args": {"i": "1"}, "padding": {"s": "U0FNRQ=="}, "epsilon": {"f": 0.0}, "fused_ops": {"list": {"s": ["Qmlhc0FkZA=="]}}, "T": {"type": "DT_FLOAT"}}}, {"name": "StatefulPartitionedCall/model/conv1d_1/BiasAdd", "op": "Squeeze", "input": ["StatefulPartitionedCall/model/conv1d_1/conv1d"], "attr": {"T": {"type": "DT_FLOAT"}, "squeeze_dims": {"list": {"i": ["-3"]}}}}, {"name": "StatefulPartitionedCall/model/batch_normalization_1/batchnorm/mul_1", "op": "Mul", "input": ["StatefulPartitionedCall/model/conv1d_1/BiasAdd", "StatefulPartitionedCall/model/batch_normalization_1/batchnorm/mul"], "attr": {"T": {"type": "DT_FLOAT"}}}, {"name": "StatefulPartitionedCall/model/batch_normalization_1/batchnorm/add_1", "op": "AddV2", "input": ["StatefulPartitionedCall/model/batch_normalization_1/batchnorm/mul_1", "StatefulPartitionedCall/model/batch_normalization_1/batchnorm/sub"], "attr": {"T": {"type": "DT_FLOAT"}}}, {"name": "StatefulPartitionedCall/model/re_lu_1/Relu", "op": "Relu", "input": ["StatefulPartitionedCall/model/batch_normalization_1/batchnorm/add_1"], "attr": {"T": {"type": "DT_FLOAT"}}}, {"name": "StatefulPartitionedCall/model/conv1d_2/conv1d/ExpandDims", "op": "ExpandDims", "input": ["StatefulPartitionedCall/model/re_lu_1/Relu", "StatefulPartitionedCall/model/conv1d_2/conv1d/ExpandDims/dim"], "attr": {"T": {"type": "DT_FLOAT"}, "Tdim": {"type": "DT_INT32"}}}, {"name": "StatefulPartitionedCall/model/conv1d_2/conv1d", "op": "_FusedConv2D", "input": ["StatefulPartitionedCall/model/conv1d_2/conv1d/ExpandDims", "StatefulPartitionedCall/model/conv1d_2/conv1d/ExpandDims_1", "StatefulPartitionedCall/model/conv1d_2/BiasAdd/ReadVariableOp"], "device": "/device:CPU:0", "attr": {"explicit_paddings": {"list": {}}, "epsilon": {"f": 0.0}, "T": {"type": "DT_FLOAT"}, "use_cudnn_on_gpu": {"b": true}, "data_format": {"s": "TkhXQw=="}, "strides": {"list": {"i": ["1", "1", "1", "1"]}}, "padding": {"s": "U0FNRQ=="}, "fused_ops": {"list": {"s": ["Qmlhc0FkZA=="]}}, "dilations": {"list": {"i": ["1", "1", "1", "1"]}}, "num_args": {"i": "1"}}}, {"name": "StatefulPartitionedCall/model/conv1d_2/BiasAdd", "op": "Squeeze", "input": ["StatefulPartitionedCall/model/conv1d_2/conv1d"], "attr": {"T": {"type": "DT_FLOAT"}, "squeeze_dims": {"list": {"i": ["-3"]}}}}, {"name": "StatefulPartitionedCall/model/batch_normalization_2/batchnorm/mul_1", "op": "Mul", "input": ["StatefulPartitionedCall/model/conv1d_2/BiasAdd", "StatefulPartitionedCall/model/batch_normalization_2/batchnorm/mul"], "attr": {"T": {"type": "DT_FLOAT"}}}, {"name": "StatefulPartitionedCall/model/batch_normalization_2/batchnorm/add_1", "op": "AddV2", "input": ["StatefulPartitionedCall/model/batch_normalization_2/batchnorm/mul_1", "StatefulPartitionedCall/model/batch_normalization_2/batchnorm/sub"], "attr": {"T": {"type": "DT_FLOAT"}}}, {"name": "StatefulPartitionedCall/model/re_lu_2/Relu", "op": "Relu", "input": ["StatefulPartitionedCall/model/batch_normalization_2/batchnorm/add_1"], "attr": {"T": {"type": "DT_FLOAT"}}}, {"name": "StatefulPartitionedCall/model/global_average_pooling1d/Mean", "op": "Mean", "input": ["StatefulPartitionedCall/model/re_lu_2/Relu", "StatefulPartitionedCall/model/global_average_pooling1d/Mean/reduction_indices"], "attr": {"T": {"type": "DT_FLOAT"}, "keep_dims": {"b": false}, "Tidx": {"type": "DT_INT32"}}}, {"name": "StatefulPartitionedCall/model/reshape/Shape", "op": "Shape", "input": ["StatefulPartitionedCall/model/global_average_pooling1d/Mean"], "attr": {"out_type": {"type": "DT_INT32"}, "T": {"type": "DT_FLOAT"}}}, {"name": "StatefulPartitionedCall/model/reshape/strided_slice", "op": "StridedSlice", "input": ["StatefulPartitionedCall/model/reshape/Shape", "StatefulPartitionedCall/model/reshape/strided_slice/stack", "StatefulPartitionedCall/model/reshape/strided_slice/stack_1", "StatefulPartitionedCall/model/reshape/strided_slice/stack_2"], "attr": {"T": {"type": "DT_INT32"}, "new_axis_mask": {"i": "0"}, "ellipsis_mask": {"i": "0"}, "begin_mask": {"i": "0"}, "Index": {"type": "DT_INT32"}, "end_mask": {"i": "0"}, "shrink_axis_mask": {"i": "1"}}}, {"name": "StatefulPartitionedCall/model/reshape/Reshape/shape", "op": "Pack", "input": ["StatefulPartitionedCall/model/reshape/strided_slice", "StatefulPartitionedCall/model/reshape/Reshape/shape/1", "StatefulPartitionedCall/model/reshape/Reshape/shape/2"], "attr": {"T": {"type": "DT_INT32"}, "axis": {"i": "0"}, "N": {"i": "3"}}}, {"name": "StatefulPartitionedCall/model/reshape/Reshape", "op": "Reshape", "input": ["StatefulPartitionedCall/model/global_average_pooling1d/Mean", "StatefulPartitionedCall/model/reshape/Reshape/shape"], "attr": {"T": {"type": "DT_FLOAT"}, "Tshape": {"type": "DT_INT32"}}}, {"name": "StatefulPartitionedCall/model/simple_rnn/Shape", "op": "Shape", "input": ["StatefulPartitionedCall/model/reshape/Reshape"], "attr": {"out_type": {"type": "DT_INT32"}, "T": {"type": "DT_FLOAT"}}}, {"name": "StatefulPartitionedCall/model/simple_rnn/transpose", "op": "Transpose", "input": ["StatefulPartitionedCall/model/reshape/Reshape", "StatefulPartitionedCall/model/simple_rnn/transpose/perm"], "attr": {"T": {"type": "DT_FLOAT"}, "Tperm": {"type": "DT_INT32"}}}, {"name": "StatefulPartitionedCall/model/simple_rnn/strided_slice", "op": "StridedSlice", "input": ["StatefulPartitionedCall/model/simple_rnn/Shape", "StatefulPartitionedCall/model/simple_rnn/strided_slice/stack", "StatefulPartitionedCall/model/simple_rnn/strided_slice/stack_1", "StatefulPartitionedCall/model/simple_rnn/strided_slice/stack_2"], "attr": {"begin_mask": {"i": "0"}, "ellipsis_mask": {"i": "0"}, "end_mask": {"i": "0"}, "T": {"type": "DT_INT32"}, "Index": {"type": "DT_INT32"}, "shrink_axis_mask": {"i": "1"}, "new_axis_mask": {"i": "0"}}}, {"name": "StatefulPartitionedCall/model/simple_rnn/Shape_1", "op": "Shape", "input": ["StatefulPartitionedCall/model/simple_rnn/transpose"], "attr": {"out_type": {"type": "DT_INT32"}, "T": {"type": "DT_FLOAT"}}}, {"name": "StatefulPartitionedCall/model/simple_rnn/TensorArrayUnstack/TensorListFromTensor", "op": "TensorListFromTensor", "input": ["StatefulPartitionedCall/model/simple_rnn/transpose", "StatefulPartitionedCall/model/simple_rnn/TensorArrayUnstack/TensorListFromTensor/element_shape"], "attr": {"element_dtype": {"type": "DT_FLOAT"}, "shape_type": {"type": "DT_INT32"}}}, {"name": "StatefulPartitionedCall/model/simple_rnn/zeros/packed", "op": "Pack", "input": ["StatefulPartitionedCall/model/simple_rnn/strided_slice", "StatefulPartitionedCall/model/simple_rnn/zeros/packed/1"], "attr": {"N": {"i": "2"}, "axis": {"i": "0"}, "T": {"type": "DT_INT32"}}}, {"name": "StatefulPartitionedCall/model/simple_rnn/strided_slice_1", "op": "StridedSlice", "input": ["StatefulPartitionedCall/model/simple_rnn/Shape_1", "StatefulPartitionedCall/model/simple_rnn/strided_slice_1/stack", "StatefulPartitionedCall/model/simple_rnn/strided_slice_1/stack_1", "StatefulPartitionedCall/model/simple_rnn/strided_slice_1/stack_2"], "attr": {"shrink_axis_mask": {"i": "1"}, "end_mask": {"i": "0"}, "begin_mask": {"i": "0"}, "T": {"type": "DT_INT32"}, "Index": {"type": "DT_INT32"}, "ellipsis_mask": {"i": "0"}, "new_axis_mask": {"i": "0"}}}, {"name": "StatefulPartitionedCall/model/simple_rnn/zeros", "op": "Fill", "input": ["StatefulPartitionedCall/model/simple_rnn/zeros/packed", "StatefulPartitionedCall/model/simple_rnn/zeros/Const"], "attr": {"T": {"type": "DT_FLOAT"}, "index_type": {"type": "DT_INT32"}}}, {"name": "StatefulPartitionedCall/model/simple_rnn/TensorArrayV2_1", "op": "TensorListReserve", "input": ["StatefulPartitionedCall/model/simple_rnn/TensorArrayV2_1/element_shape", "StatefulPartitionedCall/model/simple_rnn/strided_slice_1"], "attr": {"shape_type": {"type": "DT_INT32"}, "element_dtype": {"type": "DT_FLOAT"}}}, {"name": "StatefulPartitionedCall/model/simple_rnn/while", "op": "While", "input": ["StatefulPartitionedCall/model/simple_rnn/while/loop_counter", "StatefulPartitionedCall/model/simple_rnn/while/maximum_iterations", "StatefulPartitionedCall/model/simple_rnn/time", "StatefulPartitionedCall/model/simple_rnn/TensorArrayV2_1", "StatefulPartitionedCall/model/simple_rnn/zeros", "StatefulPartitionedCall/model/simple_rnn/strided_slice_1", "StatefulPartitionedCall/model/simple_rnn/TensorArrayUnstack/TensorListFromTensor", "unknown_17", "unknown_18", "unknown_19"], "attr": {"parallel_iterations": {"i": "32"}, "_num_original_outputs": {"i": "10"}, "_lower_using_switch_merge": {"b": false}, "body": {"func": {"name": "__inference_model_simple_rnn_while_body_570_frozen_9397"}}, "_read_only_resource_inputs": {"list": {"i": ["7", "8", "9"]}}, "T": {"list": {"type": ["DT_INT32", "DT_INT32", "DT_INT32", "DT_VARIANT", "DT_FLOAT", "DT_INT32", "DT_VARIANT", "DT_FLOAT", "DT_FLOAT", "DT_FLOAT"]}}, "output_shapes": {"list": {"shape": [{}, {}, {}, {}, {"dim": [{"size": "-1"}, {"size": "64"}]}, {}, {}, {"dim": [{"size": "1"}, {"size": "64"}]}, {"dim": [{"size": "64"}]}, {"dim": [{"size": "64"}, {"size": "64"}]}]}}, "cond": {"func": {"name": "__inference_model_simple_rnn_while_cond_569_frozen_9398"}}}}, {"name": "StatefulPartitionedCall/model/simple_rnn/TensorArrayV2Stack/TensorListStack", "op": "TensorListStack", "input": ["StatefulPartitionedCall/model/simple_rnn/while:3", "StatefulPartitionedCall/model/simple_rnn/TensorArrayV2Stack/TensorListStack/element_shape"], "attr": {"num_elements": {"i": "-1"}, "element_dtype": {"type": "DT_FLOAT"}}}, {"name": "StatefulPartitionedCall/model/simple_rnn/strided_slice_3", "op": "StridedSlice", "input": ["StatefulPartitionedCall/model/simple_rnn/TensorArrayV2Stack/TensorListStack", "StatefulPartitionedCall/model/simple_rnn/strided_slice_3/stack", "StatefulPartitionedCall/model/simple_rnn/strided_slice_3/stack_1", "StatefulPartitionedCall/model/simple_rnn/strided_slice_3/stack_2"], "attr": {"shrink_axis_mask": {"i": "1"}, "end_mask": {"i": "0"}, "T": {"type": "DT_FLOAT"}, "ellipsis_mask": {"i": "0"}, "Index": {"type": "DT_INT32"}, "new_axis_mask": {"i": "0"}, "begin_mask": {"i": "0"}}}, {"name": "StatefulPartitionedCall/model/dense/BiasAdd", "op": "_FusedMatMul", "input": ["StatefulPartitionedCall/model/simple_rnn/strided_slice_3", "StatefulPartitionedCall/model/dense/MatMul/ReadVariableOp", "StatefulPartitionedCall/model/dense/BiasAdd/ReadVariableOp"], "device": "/device:CPU:0", "attr": {"T": {"type": "DT_FLOAT"}, "num_args": {"i": "1"}, "transpose_b": {"b": false}, "fused_ops": {"list": {"s": ["Qmlhc0FkZA=="]}}, "epsilon": {"f": 0.0}, "transpose_a": {"b": false}}}, {"name": "StatefulPartitionedCall/model/activation/Softmax", "op": "Softmax", "input": ["StatefulPartitionedCall/model/dense/BiasAdd"], "attr": {"T": {"type": "DT_FLOAT"}}}, {"name": "Identity", "op": "Identity", "input": ["StatefulPartitionedCall/model/activation/Softmax"], "attr": {"T": {"type": "DT_FLOAT"}}}], "library": {"function": [{"signature": {"name": "__inference_model_simple_rnn_while_body_570_frozen_9397", "inputArg": [{"name": "model_simple_rnn_while_model_simple_rnn_while_loop_counter", "type": "DT_INT32"}, {"name": "model_simple_rnn_while_model_simple_rnn_while_maximum_iterations", "type": "DT_INT32"}, {"name": "model_simple_rnn_while_placeholder", "type": "DT_INT32"}, {"name": "model_simple_rnn_while_placeholder_1", "type": "DT_VARIANT"}, {"name": "model_simple_rnn_while_placeholder_2", "type": "DT_FLOAT"}, {"name": "model_simple_rnn_while_model_simple_rnn_strided_slice_1_0", "type": "DT_INT32"}, {"name": "model_simple_rnn_while_tensorarrayv2read_tensorlistgetitem_model_simple_rnn_tensorarrayunstack_tensorlistfromtensor_0", "type": "DT_VARIANT"}, {"name": "model_simple_rnn_while_simple_rnn_cell_matmul_readvariableop_resource_0", "type": "DT_FLOAT"}, {"name": "model_simple_rnn_while_simple_rnn_cell_biasadd_readvariableop_resource_0", "type": "DT_FLOAT"}, {"name": "model_simple_rnn_while_simple_rnn_cell_matmul_1_readvariableop_resource_0", "type": "DT_FLOAT"}], "outputArg": [{"name": "model_simple_rnn_while_identity", "type": "DT_INT32"}, {"name": "model_simple_rnn_while_identity_1", "type": "DT_INT32"}, {"name": "model_simple_rnn_while_identity_2", "type": "DT_INT32"}, {"name": "model_simple_rnn_while_identity_3", "type": "DT_VARIANT"}, {"name": "model_simple_rnn_while_identity_4", "type": "DT_FLOAT"}, {"name": "model_simple_rnn_while_model_simple_rnn_strided_slice_1", "type": "DT_INT32"}, {"name": "model_simple_rnn_while_tensorarrayv2read_tensorlistgetitem_model_simple_rnn_tensorarrayunstack_tensorlistfromtensor", "type": "DT_VARIANT"}, {"name": "model_simple_rnn_while_simple_rnn_cell_matmul_readvariableop_resource", "type": "DT_FLOAT"}, {"name": "model_simple_rnn_while_simple_rnn_cell_biasadd_readvariableop_resource", "type": "DT_FLOAT"}, {"name": "model_simple_rnn_while_simple_rnn_cell_matmul_1_readvariableop_resource", "type": "DT_FLOAT"}], "isStateful": true, "controlOutput": ["model/simple_rnn/while/simple_rnn_cell/MatMul_1/ReadVariableOp", "model/simple_rnn/while/simple_rnn_cell/BiasAdd/ReadVariableOp", "model/simple_rnn/while/simple_rnn_cell/MatMul/ReadVariableOp"]}, "nodeDef": [{"name": "__inference_model_simple_rnn_while_body_570_frozen_9397/model/simple_rnn/while/add/y", "op": "Const", "attr": {"dtype": {"type": "DT_INT32"}, "value": {"tensor": {"dtype": "DT_INT32", "tensorShape": {}}}}}, {"name": "__inference_model_simple_rnn_while_body_570_frozen_9397/model/simple_rnn/while/TensorArrayV2Read/TensorListGetItem/element_shape", "op": "Const", "attr": {"dtype": {"type": "DT_INT32"}, "value": {"tensor": {"dtype": "DT_INT32", "tensorShape": {"dim": [{"size": "2"}]}}}}}, {"name": "__inference_model_simple_rnn_while_body_570_frozen_9397/model/simple_rnn/while/add_1/y", "op": "Const", "attr": {"dtype": {"type": "DT_INT32"}, "value": {"tensor": {"dtype": "DT_INT32", "tensorShape": {}}}}}, {"name": "model/simple_rnn/while/simple_rnn_cell/MatMul/ReadVariableOp", "op": "Identity", "input": ["model_simple_rnn_while_simple_rnn_cell_matmul_readvariableop_resource_0"], "attr": {"T": {"type": "DT_FLOAT"}}}, {"name": "model/simple_rnn/while/simple_rnn_cell/BiasAdd/ReadVariableOp", "op": "Identity", "input": ["model_simple_rnn_while_simple_rnn_cell_biasadd_readvariableop_resource_0"], "attr": {"T": {"type": "DT_FLOAT"}}}, {"name": "model/simple_rnn/while/simple_rnn_cell/MatMul_1/ReadVariableOp", "op": "Identity", "input": ["model_simple_rnn_while_simple_rnn_cell_matmul_1_readvariableop_resource_0"], "attr": {"T": {"type": "DT_FLOAT"}}}, {"name": "model/simple_rnn/while/add", "op": "AddV2", "input": ["model_simple_rnn_while_placeholder", "__inference_model_simple_rnn_while_body_570_frozen_9397/model/simple_rnn/while/add/y:output:0"], "attr": {"T": {"type": "DT_INT32"}}}, {"name": "model/simple_rnn/while/TensorArrayV2Read/TensorListGetItem", "op": "TensorListGetItem", "input": ["model_simple_rnn_while_tensorarrayv2read_tensorlistgetitem_model_simple_rnn_tensorarrayunstack_tensorlistfromtensor_0", "model_simple_rnn_while_placeholder", "__inference_model_simple_rnn_while_body_570_frozen_9397/model/simple_rnn/while/TensorArrayV2Read/TensorListGetItem/element_shape:output:0"], "attr": {"element_dtype": {"type": "DT_FLOAT"}}}, {"name": "model/simple_rnn/while/add_1", "op": "AddV2", "input": ["model_simple_rnn_while_model_simple_rnn_while_loop_counter", "__inference_model_simple_rnn_while_body_570_frozen_9397/model/simple_rnn/while/add_1/y:output:0"], "attr": {"T": {"type": "DT_INT32"}}}, {"name": "model/simple_rnn/while/simple_rnn_cell/MatMul_1", "op": "MatMul", "input": ["model_simple_rnn_while_placeholder_2", "model/simple_rnn/while/simple_rnn_cell/MatMul_1/ReadVariableOp:output:0"], "attr": {"transpose_a": {"b": false}, "transpose_b": {"b": false}, "T": {"type": "DT_FLOAT"}}}, {"name": "model/simple_rnn/while/Identity_1", "op": "Identity", "input": ["model_simple_rnn_while_model_simple_rnn_while_maximum_iterations", "^model/simple_rnn/while/simple_rnn_cell/BiasAdd/ReadVariableOp", "^model/simple_rnn/while/simple_rnn_cell/MatMul/ReadVariableOp", "^model/simple_rnn/while/simple_rnn_cell/MatMul_1/ReadVariableOp"], "attr": {"T": {"type": "DT_INT32"}}}, {"name": "model/simple_rnn/while/Identity_2", "op": "Identity", "input": ["model/simple_rnn/while/add:z:0", "^model/simple_rnn/while/simple_rnn_cell/BiasAdd/ReadVariableOp", "^model/simple_rnn/while/simple_rnn_cell/MatMul/ReadVariableOp", "^model/simple_rnn/while/simple_rnn_cell/MatMul_1/ReadVariableOp"], "attr": {"T": {"type": "DT_INT32"}}}, {"name": "model/simple_rnn/while/simple_rnn_cell/MatMul", "op": "MatMul", "input": ["model/simple_rnn/while/TensorArrayV2Read/TensorListGetItem:item:0", "model/simple_rnn/while/simple_rnn_cell/MatMul/ReadVariableOp:output:0"], "attr": {"transpose_b": {"b": false}, "T": {"type": "DT_FLOAT"}, "transpose_a": {"b": false}}}, {"name": "model/simple_rnn/while/Identity", "op": "Identity", "input": ["model/simple_rnn/while/add_1:z:0", "^model/simple_rnn/while/simple_rnn_cell/BiasAdd/ReadVariableOp", "^model/simple_rnn/while/simple_rnn_cell/MatMul/ReadVariableOp", "^model/simple_rnn/while/simple_rnn_cell/MatMul_1/ReadVariableOp"], "attr": {"T": {"type": "DT_INT32"}}}, {"name": "model/simple_rnn/while/simple_rnn_cell/BiasAdd", "op": "BiasAdd", "input": ["model/simple_rnn/while/simple_rnn_cell/MatMul:product:0", "model/simple_rnn/while/simple_rnn_cell/BiasAdd/ReadVariableOp:output:0"], "attr": {"data_format": {"s": "TkhXQw=="}, "T": {"type": "DT_FLOAT"}}}, {"name": "model/simple_rnn/while/simple_rnn_cell/add", "op": "AddV2", "input": ["model/simple_rnn/while/simple_rnn_cell/BiasAdd:output:0", "model/simple_rnn/while/simple_rnn_cell/MatMul_1:product:0"], "attr": {"T": {"type": "DT_FLOAT"}}}, {"name": "model/simple_rnn/while/simple_rnn_cell/Tanh", "op": "Tanh", "input": ["model/simple_rnn/while/simple_rnn_cell/add:z:0"], "attr": {"T": {"type": "DT_FLOAT"}}}, {"name": "model/simple_rnn/while/TensorArrayV2Write/TensorListSetItem", "op": "TensorListSetItem", "input": ["model_simple_rnn_while_placeholder_1", "model_simple_rnn_while_placeholder", "model/simple_rnn/while/simple_rnn_cell/Tanh:y:0"], "attr": {"element_dtype": {"type": "DT_FLOAT"}}}], "ret": {"model_simple_rnn_while_identity": "model/simple_rnn/while/Identity:output:0", "model_simple_rnn_while_tensorarrayv2read_tensorlistgetitem_model_simple_rnn_tensorarrayunstack_tensorlistfromtensor": "model_simple_rnn_while_tensorarrayv2read_tensorlistgetitem_model_simple_rnn_tensorarrayunstack_tensorlistfromtensor_0", "model_simple_rnn_while_identity_3": "model/simple_rnn/while/TensorArrayV2Write/TensorListSetItem:output_handle:0", "model_simple_rnn_while_simple_rnn_cell_matmul_1_readvariableop_resource": "model_simple_rnn_while_simple_rnn_cell_matmul_1_readvariableop_resource_0", "model_simple_rnn_while_identity_4": "model/simple_rnn/while/simple_rnn_cell/Tanh:y:0", "model_simple_rnn_while_model_simple_rnn_strided_slice_1": "model_simple_rnn_while_model_simple_rnn_strided_slice_1_0", "model_simple_rnn_while_identity_2": "model/simple_rnn/while/Identity_2:output:0", "model_simple_rnn_while_simple_rnn_cell_matmul_readvariableop_resource": "model_simple_rnn_while_simple_rnn_cell_matmul_readvariableop_resource_0", "model_simple_rnn_while_simple_rnn_cell_biasadd_readvariableop_resource": "model_simple_rnn_while_simple_rnn_cell_biasadd_readvariableop_resource_0", "model_simple_rnn_while_identity_1": "model/simple_rnn/while/Identity_1:output:0"}, "attr": {"_construction_context": {"s": "a0VhZ2VyUnVudGltZQ=="}}, "controlRet": {"model/simple_rnn/while/simple_rnn_cell/MatMul_1/ReadVariableOp": "model/simple_rnn/while/simple_rnn_cell/MatMul_1/ReadVariableOp", "model/simple_rnn/while/simple_rnn_cell/MatMul/ReadVariableOp": "model/simple_rnn/while/simple_rnn_cell/MatMul/ReadVariableOp", "model/simple_rnn/while/simple_rnn_cell/BiasAdd/ReadVariableOp": "model/simple_rnn/while/simple_rnn_cell/BiasAdd/ReadVariableOp"}, "argAttr": {"2": {"attr": {"_output_shapes": {"list": {"shape": [{}]}}}}, "0": {"attr": {"_output_shapes": {"list": {"shape": [{}]}}}}, "5": {"attr": {"_output_shapes": {"list": {"shape": [{}]}}}}, "6": {"attr": {"_output_shapes": {"list": {"shape": [{}]}}}}, "3": {"attr": {"_output_shapes": {"list": {"shape": [{}]}}}}, "1": {"attr": {"_output_shapes": {"list": {"shape": [{}]}}}}, "4": {"attr": {"_output_shapes": {"list": {"shape": [{"dim": [{"size": "-1"}, {"size": "64"}]}]}}}}}}, {"signature": {"name": "__inference_model_simple_rnn_while_cond_569_frozen_9398", "inputArg": [{"name": "model_simple_rnn_while_model_simple_rnn_while_loop_counter", "type": "DT_INT32"}, {"name": "model_simple_rnn_while_model_simple_rnn_while_maximum_iterations", "type": "DT_INT32"}, {"name": "model_simple_rnn_while_placeholder", "type": "DT_INT32"}, {"name": "model_simple_rnn_while_placeholder_1", "type": "DT_VARIANT"}, {"name": "model_simple_rnn_while_placeholder_2", "type": "DT_FLOAT"}, {"name": "model_simple_rnn_while_less_model_simple_rnn_strided_slice_1", "type": "DT_INT32"}, {"name": "model_simple_rnn_while_model_simple_rnn_while_cond_569___redundant_placeholder0", "type": "DT_VARIANT"}, {"name": "model_simple_rnn_while_model_simple_rnn_while_cond_569___redundant_placeholder1", "type": "DT_FLOAT"}, {"name": "model_simple_rnn_while_model_simple_rnn_while_cond_569___redundant_placeholder2", "type": "DT_FLOAT"}, {"name": "model_simple_rnn_while_model_simple_rnn_while_cond_569___redundant_placeholder3", "type": "DT_FLOAT"}], "outputArg": [{"name": "model_simple_rnn_while_identity", "type": "DT_BOOL"}]}, "nodeDef": [{"name": "model/simple_rnn/while/Less", "op": "Less", "input": ["model_simple_rnn_while_placeholder", "model_simple_rnn_while_less_model_simple_rnn_strided_slice_1"], "attr": {"T": {"type": "DT_INT32"}}}], "ret": {"model_simple_rnn_while_identity": "model/simple_rnn/while/Less:z:0"}, "attr": {"_construction_context": {"s": "a0VhZ2VyUnVudGltZQ=="}}, "argAttr": {"0": {"attr": {"_output_shapes": {"list": {"shape": [{}]}}}}, "6": {"attr": {"_output_shapes": {"list": {"shape": [{"unknownRank": true}]}}}}, "3": {"attr": {"_output_shapes": {"list": {"shape": [{}]}}}}, "4": {"attr": {"_output_shapes": {"list": {"shape": [{"dim": [{"size": "-1"}, {"size": "64"}]}]}}}}, "1": {"attr": {"_output_shapes": {"list": {"shape": [{}]}}}}, "5": {"attr": {"_output_shapes": {"list": {"shape": [{}]}}}}, "2": {"attr": {"_output_shapes": {"list": {"shape": [{}]}}}}}}]}, "versions": {"producer": 716, "minConsumer": 12}}, "weightsManifest": [{"paths": ["group1-shard1of1.bin"], "weights": [{"name": "StatefulPartitionedCall/model/simple_rnn/while/loop_counter", "shape": [], "dtype": "int32"}, {"name": "StatefulPartitionedCall/model/simple_rnn/while/maximum_iterations", "shape": [], "dtype": "int32"}, {"name": "StatefulPartitionedCall/model/simple_rnn/time", "shape": [], "dtype": "int32"}, {"name": "StatefulPartitionedCall/model/simple_rnn/TensorArrayV2_1/element_shape", "shape": [2], "dtype": "int32"}, {"name": "StatefulPartitionedCall/model/simple_rnn/strided_slice/stack", "shape": [1], "dtype": "int32"}, {"name": "StatefulPartitionedCall/model/simple_rnn/strided_slice/stack_1", "shape": [1], "dtype": "int32"}, {"name": "StatefulPartitionedCall/model/simple_rnn/strided_slice/stack_2", "shape": [1], "dtype": "int32"}, {"name": "StatefulPartitionedCall/model/simple_rnn/zeros/packed/1", "shape": [], "dtype": "int32"}, {"name": "StatefulPartitionedCall/model/simple_rnn/zeros/Const", "shape": [], "dtype": "float32"}, {"name": "StatefulPartitionedCall/model/simple_rnn/strided_slice_1/stack", "shape": [1], "dtype": "int32"}, {"name": "StatefulPartitionedCall/model/simple_rnn/strided_slice_1/stack_1", "shape": [1], "dtype": "int32"}, {"name": "StatefulPartitionedCall/model/simple_rnn/strided_slice_1/stack_2", "shape": [1], "dtype": "int32"}, {"name": "StatefulPartitionedCall/model/conv1d/conv1d/ExpandDims/dim", "shape": [], "dtype": "int32"}, {"name": "StatefulPartitionedCall/model/conv1d/conv1d/ExpandDims_1", "shape": [1, 64, 1, 64], "dtype": "float32"}, {"name": "StatefulPartitionedCall/model/conv1d/BiasAdd/ReadVariableOp", "shape": [64], "dtype": "float32"}, {"name": "StatefulPartitionedCall/model/batch_normalization/batchnorm/mul", "shape": [64], "dtype": "float32"}, {"name": "StatefulPartitionedCall/model/batch_normalization/batchnorm/sub", "shape": [64], "dtype": "float32"}, {"name": "StatefulPartitionedCall/model/max_pooling1d/ExpandDims/dim", "shape": [], "dtype": "int32"}, {"name": "StatefulPartitionedCall/model/conv1d_1/conv1d/ExpandDims/dim", "shape": [], "dtype": "int32"}, {"name": "StatefulPartitionedCall/model/conv1d_1/conv1d/ExpandDims_1", "shape": [1, 8, 64, 64], "dtype": "float32"}, {"name": "StatefulPartitionedCall/model/conv1d_1/BiasAdd/ReadVariableOp", "shape": [64], "dtype": "float32"}, {"name": "StatefulPartitionedCall/model/batch_normalization_1/batchnorm/mul", "shape": [64], "dtype": "float32"}, {"name": "StatefulPartitionedCall/model/batch_normalization_1/batchnorm/sub", "shape": [64], "dtype": "float32"}, {"name": "StatefulPartitionedCall/model/conv1d_2/conv1d/ExpandDims/dim", "shape": [], "dtype": "int32"}, {"name": "StatefulPartitionedCall/model/conv1d_2/conv1d/ExpandDims_1", "shape": [1, 8, 64, 64], "dtype": "float32"}, {"name": "StatefulPartitionedCall/model/conv1d_2/BiasAdd/ReadVariableOp", "shape": [64], "dtype": "float32"}, {"name": "StatefulPartitionedCall/model/batch_normalization_2/batchnorm/mul", "shape": [64], "dtype": "float32"}, {"name": "StatefulPartitionedCall/model/batch_normalization_2/batchnorm/sub", "shape": [64], "dtype": "float32"}, {"name": "StatefulPartitionedCall/model/global_average_pooling1d/Mean/reduction_indices", "shape": [], "dtype": "int32"}, {"name": "StatefulPartitionedCall/model/reshape/strided_slice/stack", "shape": [1], "dtype": "int32"}, {"name": "StatefulPartitionedCall/model/reshape/strided_slice/stack_1", "shape": [1], "dtype": "int32"}, {"name": "StatefulPartitionedCall/model/reshape/strided_slice/stack_2", "shape": [1], "dtype": "int32"}, {"name": "StatefulPartitionedCall/model/reshape/Reshape/shape/1", "shape": [], "dtype": "int32"}, {"name": "StatefulPartitionedCall/model/reshape/Reshape/shape/2", "shape": [], "dtype": "int32"}, {"name": "StatefulPartitionedCall/model/simple_rnn/transpose/perm", "shape": [3], "dtype": "int32"}, {"name": "StatefulPartitionedCall/model/simple_rnn/TensorArrayUnstack/TensorListFromTensor/element_shape", "shape": [2], "dtype": "int32"}, {"name": "unknown_17", "shape": [1, 64], "dtype": "float32"}, {"name": "unknown_18", "shape": [64], "dtype": "float32"}, {"name": "unknown_19", "shape": [64, 64], "dtype": "float32"}, {"name": "StatefulPartitionedCall/model/simple_rnn/TensorArrayV2Stack/TensorListStack/element_shape", "shape": [2], "dtype": "int32"}, {"name": "StatefulPartitionedCall/model/simple_rnn/strided_slice_3/stack", "shape": [1], "dtype": "int32"}, {"name": "StatefulPartitionedCall/model/simple_rnn/strided_slice_3/stack_1", "shape": [1], "dtype": "int32"}, {"name": "StatefulPartitionedCall/model/simple_rnn/strided_slice_3/stack_2", "shape": [1], "dtype": "int32"}, {"name": "StatefulPartitionedCall/model/dense/MatMul/ReadVariableOp", "shape": [64, 3], "dtype": "float32"}, {"name": "StatefulPartitionedCall/model/dense/BiasAdd/ReadVariableOp", "shape": [3], "dtype": "float32"}, {"name": "__inference_model_simple_rnn_while_body_570_frozen_9397/model/simple_rnn/while/add/y", "shape": [], "dtype": "int32"}, {"name": "__inference_model_simple_rnn_while_body_570_frozen_9397/model/simple_rnn/while/TensorArrayV2Read/TensorListGetItem/element_shape", "shape": [2], "dtype": "int32"}, {"name": "__inference_model_simple_rnn_while_body_570_frozen_9397/model/simple_rnn/while/add_1/y", "shape": [], "dtype": "int32"}]}]}